# Yolov5 + P2 + BiFPN

# Parameters
nc: 6  # number of classes
depth_multiple: 0.33  # model depth multiple
width_multiple: 0.50  # layer channel multiple
anchors: 4            # AutoAnchor evolves 3 anchors per P output layer
  # - [10,13, 16,30, 33,23]  # P3/8
  # - [30,61, 62,45, 59,119]  # P4/16
  # - [116,90, 156,198, 373,326]  # P5/32

# YOLOv5 v6.0 backbone
# replace C3 module by C3CA module (C3 + Coordinate Attention)
backbone:
  # [from, number, module, args]
  [[-1, 1, Conv, [64, 6, 2, 2]],  # 0-P1/2
   [-1, 1, Conv, [128, 3, 2]],    # 1-P2/4
   [-1, 3, C3CA, [128]],
   [-1, 1, Conv, [256, 3, 2]],    # 3-P3/8
   [-1, 6, C3CA, [256]],
   [-1, 1, Conv, [512, 3, 2]],    # 5-P4/16
   [-1, 9, C3CA, [512]],
   [-1, 1, Conv, [1024, 3, 2]],   # 7-P5/32
   [-1, 3, C3CA, [1024]],
   [-1, 1, SPPF, [1024, 5]],      # 9
  ]

# YOLOv5 v6.0 P2 + BiFPN head
head:
  [[-1, 1, Conv, [512, 1, 1]],
   [-1, 1, nn.Upsample, [None, 2, 'nearest']],
   [[-1, 6], 1, Concat, [1]],       # neck F4 -> concat backbone P4, P5 
   [-1, 3, C3, [512, False]],       # 13

   [-1, 1, Conv, [256, 1, 1]],
   [-1, 1, nn.Upsample, [None, 2, 'nearest']],
   [[-1, 4], 1, Concat, [1]],       # neck F3 -> concat backbone P3, neck F4
   [-1, 3, C3, [256, False]],       # 17 (P3/8-small)

   [-1, 1, Conv, [128, 1, 1]],
   [-1, 1, nn.Upsample, [None, 2, 'nearest']],
   [[-1, 2], 1, Concat, [1]],       # head D2 -> concat backbone P2, neck F3
   [-1, 3, C3, [128, False]],       # 21 (P2/4-xsmall)

   [-1, 1, Conv, [128, 3, 2]],
   [[-1, 18, 4], 1, Concat, [1]],   # head D3 -> concat head D2, neck F3, backbone P3 <--- BiFPN change
   [-1, 3, C3, [256, False]],       # 24 (P3/8-small)

   [-1, 1, Conv, [256, 3, 2]],
   [[-1, 14, 6], 1, Concat, [1]],   # head D4 -> concat head D3, neck F4, backbone P4 <--- BiFPN change
   [-1, 3, C3, [512, False]],       # 27 (P4/16-medium)

   [-1, 1, Conv, [512, 3, 2]],
   [[-1, 10], 1, Concat, [1]],      # head D5 -> concat head D4 + backbone P5
   [-1, 3, C3, [1024, False]],      # 30 (P5/32-large)

   [[21, 24, 27, 30], 1, Detect, [nc, anchors]],  # Detect(head D2, D3, D4, D5)
  ]
